…
ar(hidden_units * 8, n_classes),\n        )\n\n    def forward(self, x):\n        x = self.layer1(x)\n        x = self.layer2(x)\n        x = self.layer3(x)\n        x = self.layer4(x)\n        x = self.layer5(x)\n        x = x.view(x.size(0), -1)\n        x = self.fc(x)\n        return x\n\n\n# Define Model\nmodel = cnn(input_shape=n_channels, hidden_units=16, output_shape=n_classes).to(device)\n\n\n# Setup loss and optimizer\nloss_fn = nn.CrossEntropyLoss()\noptimizer = torch.optim.SGD(model.parameters(), lr=0.001, momentum=0.9)\n\n# View Model\nmodel\n\ncnn(\n  (layer1): Sequential(\n    (0): Conv2d(3, 16, kernel_size=(3, 3), stride=(1, 1))\n    (1): BatchNorm2d(16, eps=1e-05, momentum=0.1, affine=True, track_running_stats=True)\n    (2): ReLU()\n  )\n  (layer2): Sequential(\n    (0): Conv2d(16, 16, kernel_size=(3, 3), stride=(1, 1))\n    (1): BatchNorm2d(16, eps=1e-05, momentum=0.1, affine=True, track_running_stats=True)\n    (2): ReLU()\n    (3): MaxPool2d(kernel_size=2, stride=2, padding=0, dilation=1, ceil_mode=False)\n  )\n  (layer3): Sequential(\n    (0): Conv2d(16, 64, kernel_size=(3, 3), stride=(1, 1))\n    (1): BatchNorm2d(64, eps=1e-05, momentum=0.1, affine=True, track_running_stats=True)\n    (2): ReLU()\n  )\n  (layer4): Sequential(\n    (0): Conv2d(64, 64, kernel_size=(3, 3), stride=(1, 1))\n    (1): BatchNorm2d(64, eps=1e-05, momentum=0.1, affine=True, track_running_stats=True)\n    (2): ReLU()\n  )\n  (layer5): Sequential(\n    (0): Conv2d(64, 64, kernel_size=(3, 3), stride=(1, 1), padding=(1, 1))\n    (1): BatchNorm2d(64, eps=1e-05, momentum=0.1, affine=True, track_running_stats=True)\n    (2): ReLU()\n    (3): MaxPool2d(kernel_size=2, stride=2, padding=0, dilation=1, ceil_mode=False)\n  )\n  (fc): Sequential(\n    (0): Linear(in_features=1024, out_features=128, bias=True)\n    (1): ReLU()\n    (2): Linear(in_features=128, out_features=128, bias=True)\n    (3): ReLU()\n    (4): Linear(in_features=128, out_features=9, bias=True)\n  )\n)\n\n\n\ntorch.manual_seed(42)\n\n# Measure Time\n\ntrain_time_start_model = timer()\n\niteration_loss_list = []\niteration_accuracy_list = []\n\n# set parameters\nepochs = 10\nbest_loss = 10\n\n# call train and test function\nfor epoch in tqdm(range(epochs)):\n    train_loss, train_acc = train_step(\n        data_loader=train_dataloader,\n        
…
